Modelos/model_estable_inestable_478_landmarks.tflite (tflite, 770368 bytes, 6 tensors)

arith.constant f4 [2, 64]
-0.003580995 -0.113704756 0.19439425 0.306145 -0.05365077 0.051607233 0.50125724 0.25966662
0.023289807 0.16548795 0.5161589 0.24089994 0.0027442572 -0.01209583 -0.29960454 0.7055118
0.23464301 -0.2717441 -0.4560713 0.45800218 0.099253476 0.40994912 -0.28279397 0.16386087
0.3714687 -0.11314086 -0.18382649 0.1899112 -0.06945911 -0.1686657 0.06677758 -0.45827678
0.14663836 0.097516425 -0.10427953 0.24590866 0.07362091 0.05126774 -0.1721252 -0.16320345
-0.0038287244 0.17278163 -0.13486148 -0.78541046 0.008346776 0.027357232 -0.32547382 -0.18391646
0.45513397 0.49924794 0.1446577 0.18676983 -0.21117957 -0.7120878 0.1160894 -0.24274285
0.23995659 0.33189145 -0.25516364 -0.061117195 0.13156343 0.17593718 0.45006207 0.22890495
-0.29074952 0.1918059 0.23363315 -0.16321231 -0.25179744 0.19338652 -0.39060345 -0.38633874
-0.3706335 -0.42151394 -0.4934974 -0.24818814 0.32575223 0.1908646 0.61131185 -0.42847425
-0.20401788 0.2635379 0.3164522 0.10725835 -0.47756392 -0.091614336 0.18993622 -0.37744805
-0.14271592 0.32479066 0.30127037 -0.24449772 -0.28961077 -0.15955546 -0.14776456 0.371867
-0.0025798923 -0.0700791 0.5098586 -0.10891492 0.14297543 -0.4385331 0.5209423 -0.27215728
0.17518418 -0.3533155 0.039941292 0.4582766 0.057871588 0.22218801 0.14317442 0.23706257
0.02820482 -0.18271339 0.041270245 0.052324872 0.4843945 0.59777534 0.17475517 0.22703008
-0.15695442 -0.043104175 0.119908705 -0.10483253 0.19332929 -0.47843117 0.09270181 -0.037831865
00000000: 20af 6abb 0ade e8bd 490f 473e 0abf 9c3e
00000010: e9c0 5bbd 1b62 533d 6552 003f 06f3 843e
00000020: 44ca be3c ac75 293e fd22 043f 79ae 763e
00000030: ffd8 333b 972d 46bc c465 99be 6c9c 343f
00000040: 4246 703e 0b22 8bbe 2d82 e9be 437f ea3e
00000050: 6845 cb3d dae4 d13e 5fca 90be 25cb 273e
00000060: 2531 be3e 65b6 e7bd 033d 3cbe 1578 423e
00000070: 9440 8ebd b4b6 2cbe afc2 883d 41a3 eabe
00000080: 5e28 163e b1b6 c73d 8290 d5bd 7bcf 7b3e
00000090: 8fc6 963d 1ffe 513d 9741 30be ce1e 27be
000000a0: 56eb 7abb abed 303e 2119 0abe a910 49bf
000000b0: eac0 083c 461c e03c 81a4 a6be 9954 3cbe
000000c0: 5207 e93e 6d9d ff3e 2621 143e 9740 3f3e
000000d0: 753f 58be 634b 36bf 48c0 ed3d 9591 78be
000000e0: 2eb7 753e aded a93e cfa4 82be 0656 7abd
000000f0: 90b8 063e e028 343e 896e e63e 0f66 6a3e
00000100: 1fdd 94be c468 443e 873d 6f3e 2121 27be
00000110: 98eb 80be 1e07 463e 2dfd c7be 31ce c5be
00000120: adc3 bdbe add0 d7be b1ab fcbe 0825 7ebe
00000130: ffc8 a63e 0272 433e ef7e 1c3f fa60 dbbe
00000140: 10ea 50be 71ee 863e 0606 a23e 44aa db3d
00000150: 4283 f4be 4ca0 bbbd a47e 423e df40 c1be
00000160: 1f24 12be f64a a63e 1c40 9a3e 9c5d 7abe
00000170: dd47 94be 8262 23be 984f 17be 5a65 be3e
00000180: 6913 29bb a285 8fbd 1886 023f c90e dfbd
00000190: 2768 123e 6987 e0be 795c 053f 3358 8bbe
000001a0: 7b63 333e c5e5 b4be 7b99 233d 3ba3 ea3e
000001b0: c20a 6d3d 4185 633e 519c 123e 88c0 723e
000001c0: cb0d e73c 3819 3bbe fd0a 293d 9b52 563d
000001d0: 8e02 f83e ce07 193f 05f3 323e 937a 683e
000001e0: a9b8 20be 018e 30bd b292 f53d 70b2 d6bd
000001f0: 1df8 453e eef4 f4be 72da bd3d 96f5 1abd

arith.constant1 f4 [64, 128]
0.1008892 -0.028741077 -0.056082528 0.041726045 -0.13039999 -0.040790536 0.054723725 -0.07955951
-0.13222128 0.07711156 0.12926161 0.17939542 0.029577313 0.20141672 -0.097105004 -0.008793633
0.019994145 -0.14271656 0.0031260743 -0.014312166 0.09732135 0.106026754 0.26576346 -0.17524178
-0.16445908 0.13013376 0.08915341 0.038158283 -0.029966136 0.13111615 0.03971874 0.1394941
-0.03856559 -0.05331555 -0.121413544 -0.07564832 0.14275382 0.029722134 0.03769505 0.008980781
-0.05440863 0.04020758 0.17045103 0.1635167 0.061202183 0.12939091 -0.122410186 0.11640389
-0.12997662 -0.14733957 0.11146055 -0.13784966 -0.025158461 0.10202527 0.026670255 -0.28395605
0.15395296 -0.012213082 -0.05746398 -0.0038450037 -0.12487765 0.17405625 -0.013951102 -0.01244092
-0.08984928 0.10333616 -0.16379587 -0.0066984 -0.013511986 0.075198546 -0.010220384 -0.11561667
-0.09572113 0.05558143 0.16105725 -0.11220146 0.12582551 0.06418436 0.06665982 0.17285764
0.03287124 0.094060585 -0.09001947 0.15151142 -0.12091688 0.16255365 0.10407935 0.08541406
-0.06329785 -0.11029025 -0.09217144 -0.013304594 -0.09866784 0.0250502 -0.2982557 -0.16429524
-0.0127675 -0.14172982 0.06857434 0.17885679 0.06921433 -0.07422528 0.07098618 0.09129612
-0.112320565 0.02269496 0.0098998295 -0.10732621 0.095541455 0.07198118 0.17814896 0.060445532
-0.16961797 -0.07407346 -0.012410402 0.0051478595 0.013718426 -0.12697105 0.09950655 0.04348138
0.07266036 -0.12679742 0.10979463 -0.060996164 0.063056044 -0.055025324 -0.009450608 -0.110536344
0.03280147 0.009385699 0.062014714 0.11396642 0.032770813 0.25472775 -0.14231557 0.062232897
0.17255664 0.1879639 0.14574848 0.1252871 -0.16400214 -0.09522178 -0.053496417 -0.07624323
0.1461371 0.15300867 0.07497153 -0.11391942 0.12658069 0.15136792 0.04719179 -0.15824257
-0.18659529 -0.13200529 -0.017304912 0.061241142 0.0920384 -0.13112652 0.1644513 -0.107992485
0.0032170266 -0.030227557 -0.09991083 -0.04490228 0.1480302 0.042726286 -0.117155716 0.124719605
-0.12996557 -0.15615904 -0.1143857 0.17967883 0.14685291 -0.1108566 -0.059343427 0.10687149
0.13914162 -0.08482757 0.16482244 -0.063972384 -0.09190582 -0.07836949 0.15523742 0.14220165
-0.08521109 0.15173145 0.151825 -0.10334288 0.14639999 -0.032084376 0.12282558 0.046476007
-0.14964385 -0.10255331 -0.11962258 -0.08862542 -0.08115822 -0.09773415 0.12783669 0.1355307
0.10707383 0.09678015 -0.12301467 0.2817908 0.018186353 -0.062887065 0.10910083 -0.106329165
-0.05150264 0.10576232 0.023760587 0.047650725 -0.10381541 -0.024214119 0.047862545 0.045203544
0.11196688 0.048569232 0.1776013 0.05538697 -0.16451336 -0.007974267 -0.15765952 0.14512332
0.028714927 0.058327597 0.046607412 -0.047655225 0.008364492 0.17460437 0.06934106 0.17208816
-0.16313 -0.0065413737 0.14764807 -0.06903977 -0.07347679 0.08263568 0.0020948118 0.14806937
-0.06912458 -0.050042763 0.16965246 -0.14966582 -0.0074976683 0.06086157 0.06251996 0.057245612
0.16151296 0.17363165 0.020273015 -0.0972561 0.1555116 -0.051643714 -0.08357876 0.036068305
00000000: ff9e ce3d 6872 ebbc cbb6 65bd eee8 2a3d
00000010: 9387 05be fa13 27bd fc25 603d 19f0 a2bd
00000020: 0465 07be aaec 9d3d 285d 043e 6fb3 373e
00000030: 1f4c f23c 2f40 4e3e fdde c6bd 2c13 10bc
00000040: c3ca a33c 4a24 12be d3de 4c3b 937d 6abc
00000050: 6a50 c73d 8e24 d93d 2612 883e 9572 33be
00000060: f667 28be c941 053e 1096 b63d dc4b 1c3d
00000070: 8b7b f5bc 5043 063e 1eb0 223d 8bd7 0e3e
00000080: f4f6 1dbd 6861 5abd aaa7 f8bd 82ed 9abd
00000090: 0f2e 123e d57b f33c 2066 1a3d 2024 133c
000000a0: 95db 5ebd b4b0 243d b78a 2e3e ec70 273e
000000b0: 24af 7a3d 0d7f 043e 31b2 fabd 2a65 ee3d
000000c0: 9718 05be 2fe0 16be 6e45 e43d 7628 0dbe
000000d0: 1e19 cebc a0f2 d03d 947b da3c b062 91be
000000e0: d8a5 1d3e 6119 48bc 5a5f 6bbd 75fc 7bbb
000000f0: dabf ffbd cd3b 323e 2a93 64bc 00d5 4bbc
00000100: e602 b8bd e9a1 d33d 1bba 27be 407e dbbb
00000110: 6061 5dbc b201 9a3d 6673 27bc 6fc8 ecbd
00000120: 7109 c4bd 5ba9 633d 31ec 243e e1c9 e5bd
00000130: 67d8 003e 1773 833d f284 883d 9801 313e
00000140: fea3 063d d6a2 c03d 215c b8bd cf25 1b3e
00000150: 45a3 f7bd 7774 263e 8e27 d53d 91ed ae3d
00000160: 4ea2 81bd dbdf e1bd 61c4 bcbd 83fb 59bc
00000170: 5d12 cabd 1436 cd3c f9b4 98be 033d 28be
00000180: c72e 51bc 9f21 11be b470 8c3d 3c26 373e
00000190: 3ec0 8d3d 6c03 98bd 3461 913d 76f9 ba3d
000001a0: 5308 e6bd c8ea b93c e532 223c d8cd dbbd
000001b0: 3dab c33d de6a 933d ae6c 363e bc95 773d
000001c0: 55b0 2dbe d4b3 97bd 0055 4bbc 60af a83b
000001d0: 40c3 603c b304 02be 17ca cb3d 8819 323d
000001e0: f4ce 943d 2fd7 01be 02dc e03d 1dd7 79bd
000001f0: 8723 813d 3c62 61bd b9d6 1abc e160 e2bd
00000200: d65a 063d 7ac6 193c 2403 7e3d 3a67 e93d
00000210: b03a 063d ad6b 823e 2cbb 11be ece7 7e3d
00000220: b0b2 303e 9c79 403e 173f 153e 434b 003e
00000230: 2df0 27be a303 c3bd 0f1f 5bbd 6925 9cbd
00000240: f7a4 153e 4eae 1c3e ac8a 993d 964e e9bd
00000250: 5e9e 013e 3100 1b3e 2e4c 413d 570a 22be
00000260: d612 3fbe 652c 07be 08c3 8dbc fed7 7a3d
00000270: a17e bc3d 0846 06be ec65 283e 2a2b ddbd
00000280: c0d4 523b c89f f7bc 0d9e ccbd 74eb 37bd
00000290: 3b95 173e c201 2f3d 56ef efbd fe6c ff3d
000002a0: b215 05be 28e8 1fbe 0d43 eabd bafd 373e
000002b0: 9c60 163e c908 e3bd 1812 73bd 71df da3d
000002c0: 247b 0e3e 14ba adbd 37c7 283e f403 83bd
000002d0: 1e39 bcbd 2f80 a0bd 8ff6 1e3e 4f9d 113e
000002e0: 2783 aebd 7d5f 1b3e 0378 1b3e 6fa5 d3bd
000002f0: e1e9 153e e86a 03bd fa8b fb3d a05d 3e3d
00000300: 3d3c 19be 7807 d2bd affc f4bd 3f81 b5bd
00000310: 4836 a6bd d828 c8bd 9fe7 023e 8fc8 0a3e
00000320: 8649 db3d ac34 c63d 1eef fbbd e246 903e
00000330: 8cfb 943c efca 80bd 4270 df3d 1bc3 d9bd
00000340: 6ff4 52bd ea99 d83d 90a5 c23c 682d 433d
00000350: 2c9d d4bd b05c c6bc 840b 443d 5a27 393d
00000360: e44e e53d 88f0 463d 1ddd 353e 73dd 623d
00000370: 3176 28be 80a6 02bc 7f71 21be 359b 143e
00000380: 913b eb3c ebe8 6e3d 6ae7 3e3d 2032 43bd
00000390: 390b 093c 7dcb 323e b002 8e3d e137 303e
000003a0: 8d0b 27be 0559 d6bb 0e31 173e b964 8dbd
000003b0: 007b 96bd e53c a93d 1c49 093b 7f9f 173e
000003c0: 3091 8dbd a4f9 4cbd 60b9 2d3e ff41 19be
000003d0: 00af f5bb fb49 793d 770a 803d 607a 6a3d
000003e0: a763 253e 7fcc 313e 9813 a63c 352e c7bd
000003f0: 6f3e 1f3e 5c88 53bd 572b abbd 5cbc 133d

arith.constant2 f4 [2]
0.23582488 -0.23582497
00000000: 147c 713e 1a7c 71be

arith.constant3 f4 [64]
0.4369563 -0.5690446 -0.269281 -0.24779505 -0.006488981 -0.10879278 -0.206299 -0.28613928
0.05088735 -0.13246003 0.2788113 0.11912498 -0.242933 -0.24275996 -0.052512597 -0.37107635
0.2911685 -0.1441301 0.014863625 0.2798377 0.5067952 0.50261354 -0.21633726 0.39265284
-0.1729389 -0.30934352 -0.31145576 0.27596295 0.0 -0.33667248 0.2697708 -0.17922486
-0.08768565 0.16398494 -0.23392089 0.24054584 -0.042137776 0.48565775 0.2472239 0.073753014
0.073161475 0.3081629 -0.031102473 0.16593182 -0.13396154 -0.09152842 -0.01386174 -0.1280737
0.2506821 0.16177125 -0.0681149 0.15469499 -0.17627174 0.08490433 -0.057715002 0.021650031
0.19252796 0.27336624 0.22489321 0.19774897 -0.29463503 0.26902893 0.24026783 0.30956003
00000000: bcb8 df3e e8ac 11bf 33df 89be fcbd 7dbe
00000010: 85a1 d4bb c0ce debd 0c40 53be d980 92be
00000020: 416f 503d 9aa3 07be 5bc0 8e3e ccf7 f33d
00000030: 6ec3 78be 1196 78be 7317 57bd b8fd bdbe
00000040: 0a14 953e d796 13be 9086 733c e346 8f3e
00000050: 55bd 013f 48ab 003f 8487 5dbe cb09 c93e
00000060: e516 31be 4662 9ebe 2177 9fbe 044b 8d3e
00000070: 0000 0000 5660 acbe 661f 8a3e b986 37be
00000080: 8994 b3bd abeb 273e f588 6fbe a651 763e
00000090: a998 2cbd 22a8 f83e 4328 7d3e d20b 973d
000000a0: afd5 953d 87c7 9d3e 9dca febc 08ea 293e
000000b0: 372d 09be 4173 bbbd 5a1c 63bc c125 03be
000000c0: 6759 803e 5da7 253e d37f 8bbd 5d68 1e3e
000000d0: 9480 34be 52e2 ad3d 9166 6cbd 685b b13c
000000e0: 0d26 453e a9f6 8b3e 684a 663e b57e 4a3e
000000f0: 67da 96be 29be 893e c508 763e a77e 9e3e

sequential_9_1/dense_39_1/Add/ReadVariableOp f4 [128]
-0.0031745706 -0.005207229 0.009001226 0.004053295 -0.006003641 -0.56101537 -0.011817259 0.0
-0.00044802268 0.0016244502 0.3108305 -0.3788569 5.718131e-05 -0.31504545 -0.005557795 -0.0060048564
-0.0060017845 -0.0052082194 -0.0046552657 -0.0055516106 -0.0026679307 0.0 0.31802595 0.0
-0.48934436 -0.004086037 -0.005889574 -0.019486163 -0.003601554 -0.007219633 -0.0020366898 0.0
0.0 0.0 -0.006004347 0.0 -0.004390761 -0.0054335534 -0.0027770095 0.0
-0.0070917727 0.0 0.0 -0.0035211258 -0.020356871 -0.008169061 0.02241107 -0.0017343749
-0.004797078 0.0 0.0 0.0 0.00048898085 -0.005998067 -0.006000869 -0.172427
-0.03625869 -0.0053416938 0.0 -0.0059734737 -0.0060051307 0.0 -0.006003949 -0.0060044196
-0.0047703716 -0.006003826 -0.006082532 0.0 0.0 0.0 -0.0052527925 -0.0059996005
-0.0020620169 -0.0026668692 -0.0059739486 0.226001 -0.0035637424 -0.0048375037 -0.0160054 -0.005999192
-0.009004469 0.0 0.0 -0.010893508 -0.0051200576 -0.0060033775 0.0 -0.003841906
-0.005035615 0.0 -0.0022187594 -0.006440198 -0.006323642 -0.0060033742 -0.37117904 0.0
-0.01829787 -0.27014914 -0.0039337855 -0.006001275 -0.0067924545 0.0 -0.004639889 -0.007923838
-0.008174982 -0.0029811861 -0.005096165 -0.005109023 -0.002922732 -0.0051266407 -0.005108136 0.0
0.0 0.0 -0.0051070983 -0.0057647 0.0 -0.016502945 0.20721306 0.0
-0.009576534 -0.003602867 0.0 -0.0117691485 0.0015148263 -0.00600313 -0.0060044127 0.0023571283
00000000: 750c 50bb 67a1 aabb e179 133c 81d1 843b
00000010: 31ba c4bb b49e 0fbf 2d9d 41bc 0000 0000
00000020: 96e4 eab9 81eb d43a 2d25 9f3e 88f9 c1be
00000030: f7d5 6f38 a34d a1be 2a1e b6bb 63c4 c4bb
00000040: 9eaa c4bb b6a9 aabb 338b 98bb 49ea b5bb
00000050: 73d8 2ebb 0000 0000 4cd4 a23e 0000 0000
00000060: 588b fabe 2ae4 85bb 54fd c0bb 72a1 9fbc
00000070: 0d08 6cbb ac92 ecbb fc79 05bb 0000 0000
00000080: 0000 0000 0000 0000 1dc0 c4bb 0000 0000
00000090: 5fe0 8fbb f30b b2bb 7dfe 35bb 0000 0000
000000a0: 1a62 e8bb 0000 0000 0000 0000 b0c2 66bb
000000b0: 74c3 a6bc 86d7 05bc 6c97 b73c f753 e3ba
000000c0: cf30 9dbb 0000 0000 0000 0000 0000 0000
000000d0: f32e 003a 6f8b c4bb f0a2 c4bb b490 30be
000000e0: fe83 14bd 6009 afbb 0000 0000 21bd c3bb
000000f0: b0c6 c4bb 0000 0000 c6bc c4bb b9c0 c4bb
00000100: c750 9cbb bebb c4bb fa4f c7bb 0000 0000
00000110: 0000 0000 0000 0000 9e1f acbb 4c98 c4bb
00000120: e722 07bb a4c6 2ebb 1dc1 c3bb ce6c 673e
00000130: ad8d 69bb ec83 9ebb c21d 83bc df94 c4bb
00000140: 7b87 13bc 0000 0000 0000 0000 af7a 32bc
00000150: 28c6 a7bb fbb7 c4bb 0000 0000 7dc8 7bbb
00000160: cd01 a5bb 0000 0000 9b68 11bb 4c08 d3bb
00000170: 8e36 cfbb f4b7 c4bb 2e0b bebe 0000 0000
00000180: 6ae5 95bc fd50 8abe fce6 80bb 58a6 c4bb
00000190: 3d93 debb 0000 0000 360a 98bb fcd2 01bc
000001a0: 5cf0 05bc 0160 43bb bbfd a6bb 9769 a7bb
000001b0: 4e8b 3fbb 61fd a7bb 2762 a7bb 0000 0000
000001c0: 0000 0000 0000 0000 7259 a7bb cfe5 bcbb
000001d0: 0000 0000 2f31 87bc a92f 543e 0000 0000
000001e0: e5e6 1cbc 141e 6cbb 0000 0000 63d3 40bc
000001f0: 238d c63a e8b5 c4bb aac0 c4bb 0d7a 1a3b

sequential_9_1/dense_39_1/MatMul f4 [128, 1434]
-0.06162727 -0.027398445 -0.06110375 -0.058413286 -0.0051800516 0.068126485 0.03072027 0.054621916
-0.031102221 0.051291194 -0.019736892 -0.027454698 -0.056238893 -0.008063584 0.07053978 0.012388721
0.018719096 0.036471598 0.0076827533 -0.010222498 0.0707169 0.02993898 0.027268456 0.017174756
0.03246523 -0.036397696 0.03934159 0.021499075 -0.049742017 -0.008330291 -0.03532691 0.05476363
-0.00032247198 0.019522123 -0.032175012 -0.050394647 -0.06507877 0.023019189 0.043177012 -0.045921016
0.009462561 -0.04604463 -0.008118688 0.038465165 -0.010189044 -0.051023077 0.020332199 -0.021058831
0.04355095 -0.007609928 0.026359102 -0.06569345 0.0472381 0.0075017824 0.057396837 0.0045459056
0.014278311 -0.04015499 -0.062237643 0.018038468 -0.040537808 0.003027354 0.043971915 0.00913683
-0.02161137 0.005689495 0.019397048 0.0289254 0.042291168 0.010379596 -0.014277463 -0.040763896
-0.01880146 0.05038991 -0.034172878 0.02669289 -0.0062091323 0.037667405 -0.00034656803 0.0011113329
0.052935384 -0.025690395 -0.020003518 -0.04096269 -0.00098733 -0.019641956 0.07025219 -0.029057752
-0.030676138 0.027975986 0.04721002 -0.04835841 0.038492933 0.049356475 0.011130412 -0.009267349
-0.017799672 -0.008040824 0.056312423 0.0034973214 -0.017695291 0.058883723 -0.05823231 -0.05505951
0.021276241 0.025784684 -0.038629685 0.054891806 -0.06717563 0.05694729 0.040225342 0.00016403222
-0.06262502 -0.007860476 -0.04503763 0.0111770425 0.006760251 0.006256003 -0.012058276 -0.03575393
-0.061756153 0.025226288 0.044098333 -0.05477067 0.034804128 0.019893056 -0.06025983 -0.020924227
-0.03014204 0.016904496 0.030686805 -0.019760003 0.036742914 -0.051211555 0.025809778 -0.0021324116
0.004967164 0.06495289 0.04067529 0.04940139 0.07283098 0.031714823 -0.045784563 0.07185701
0.025315315 -0.029321734 0.060859554 -0.06348614 0.046342414 -0.011373544 0.044127576 -0.00593315
0.06289226 -0.04093936 -0.03986226 -0.011390027 -0.01797537 0.04440959 0.05917999 0.029765548
0.04407064 0.055550613 -0.017556429 0.036402706 -0.031214306 -0.013575213 -0.050629884 0.006364585
-0.0010982539 1.16951e-05 0.021260161 0.0323114 0.0086647915 0.061906457 0.014329242 -0.035773315
0.024350068 -0.044593196 0.024145676 0.039334044 0.04959075 -0.043698788 0.03930798 -0.03943117
0.0545236 0.048965327 0.018364009 -0.06136376 0.017116845 -0.025502952 -0.062168673 0.016543483
0.05200857 0.047174487 -0.01798366 0.050568786 -0.04125662 -0.01220244 0.0028615196 0.022716412
-0.041720614 -0.043771874 -0.048900876 0.074197106 -0.051824868 0.019128736 0.035648216 -0.0309609
0.008616114 -0.0055122264 0.032238822 0.04622074 -0.019157868 -0.009910275 0.0021409313 -0.027349873
-0.026932068 0.055144135 -0.0041031037 -0.022485485 0.004777744 0.042091344 -0.026070151 0.03961708
0.013283213 0.0072610173 0.0425309 0.011422531 0.032318693 -0.028876433 0.023264002 0.015792014
-0.03285652 0.01236597 -0.0327789 -0.043144986 -0.028777588 -0.055348456 -0.037537348 0.049932215
0.04725668 -0.011731905 0.055977542 -0.057047717 -0.06201504 -0.00292011 0.022881903 0.034116104
0.015135507 0.03864972 -0.027009627 0.017892165 0.05025896 0.024918208 0.019598756 -0.03618703
00000000: e06c 7cbd b472 e0bc ed47 7abd c542 6fbd
00000010: 6cbd a9bb e685 8b3d 13a9 fb3c 3bbb 5f3d
00000020: 16ca febc b716 523d 43af a1bc ade8 e0bc
00000030: c15a 66bd 1f1d 04bc 2977 903d 10fa 4a3c
00000040: ca58 993c 3e63 153d 9bbf fb3b 447c 27bc
00000050: 06d4 903d 9742 f53c 1962 df3c 13b2 8c3c
00000060: 43fa 043d c015 15bd a624 213d d41e b03c
00000070: 49be 4bbd c67b 08bc f3b2 10bd d44f 603d
00000080: 7511 a9b9 dcec 9f3c f2c9 03bd 9e6a 4ebd
00000090: 0548 85bd bd92 bc3c 61da 303d ad17 3cbd
000000a0: dc08 1b3c 4b99 3cbd 3f04 05bc a68d 1d3d
000000b0: f3ef 26bc 93fd 50bd b68f a63c 9283 acbc
000000c0: 7b62 323d b45c f9bb 0bef d73c 4a8a 86bd
000000d0: bd7c 413d 83d1 f53b f218 6b3d d2f5 943b
000000e0: 94ef 693c 8f79 24bd e6ec 7ebd 69c5 933c
000000f0: f90a 26bd 9266 463b e51b 343d a5b2 153c
00000100: 540a b1bc f16e ba3b 8fe6 9e3c f6f4 ec3c
00000110: 8139 2d3d 2e0f 2a3c 05ec 69bc 0bf8 26bd
00000120: 8505 9abc a665 4e3d dcf8 0bbd 0cab da3c
00000130: fa75 cbbb 2349 1a3d 93b3 b5b9 25aa 913a
00000140: c6d2 583d aa74 d2bc 6bde a3bc 7ec8 27bd
00000150: 4c69 81ba 2be8 a0bc 61e0 8f3d 860a eebc
00000160: 864c fbbc e52d e53c 4b5f 413d 7813 46bd
00000170: c4aa 1d3d 042a 4a3d 555c 363c 14d6 17bc
00000180: 9ed0 91bc a9bd 03bc dba7 663d 5133 653b
00000190: b7f5 90bc 0f30 713d 0185 6ebd 1586 61bd
000001a0: 834b ae3c 673a d33c 293a 1ebd 3bd6 603d
000001b0: 6093 89bd 9041 693d 54c3 243d 1000 2c39
000001c0: 8c41 80bd 3ac9 00bc 6179 38bd ea1f 373c
000001d0: 1885 dd3b 28ff cc3b 1390 45bc b772 12bd
000001e0: 05f4 7cbd 5ca7 ce3c 74a0 343d 3657 60bd
000001f0: c68e 0e3d c3f6 a23c 03d3 76bd 4969 abbc
00000200: 71ec f6bc 4c7b 8a3c e562 fb3c bbdf a1bc
00000210: bd7f 163d 35c3 51bd 076f d33c eebf 0bbb
00000220: 97c3 a23b 0506 853d 229b 263d 1d59 4a3d
00000230: 6928 953d 67e7 013d 9888 3bbd c529 933d
00000240: 1062 cf3c 2234 f0bc de47 793d 0505 82bd
00000250: 8bd1 3d3d 1a58 3abc 1ebf 343d df6a c2bb
00000260: a8cd 803d 08b0 27bd 9c46 23bd 3c9d 3abc
00000270: 1541 93bc d5e6 353d b866 723d e1d6 f33c
00000280: 6a83 343d 0a89 633d 80d2 8fbc 011b 153d
00000290: 25b5 ffbc 926a 5ebc 4861 4fbd 028e d03b
000002a0: 49f3 8fba 1236 4437 ca29 ae3c f558 043d
000002b0: c5f6 0d3c a091 7d3d 32c5 6a3c 0a87 12bd
000002c0: cb79 c73c 5ba7 36bd 27cd c53c bc1c 213d
000002d0: ac1f 4b3d 80fd 32bd 6801 213d 9482 21bd
000002e0: 2354 5f3d de8f 483d 1e70 963c 9158 7bbd
000002f0: a038 8c3c 91eb d0bc 94a4 7ebd 3386 873c
00000300: f006 553d 093a 413d 7852 93bc 3721 4f3d
00000310: b4fc 28bd beec 47bc 5588 3b3b c517 ba3c
00000320: 3ce3 2abd 234a 33bd 494c 48bd a7f4 973d
00000330: 5046 54bd deb3 9c3c dd03 123d b7a1 fdbc
00000340: 9a2a 0d3c e89f b4bb db0c 043d f551 3d3d
00000350: f6f0 9cbc b55e 22bc de4e 0c3b d70c e0bc
00000360: a4a0 dcbc d1de 613d 5473 86bb 7b33 b8bc
00000370: 9f8e 9c3b f967 2c3d 1291 d5bc 8545 223d
00000380: d5a1 593c d4ed ed3b e234 2e3d 9125 3b3c
00000390: 9b60 043d 458e ecbc 2694 be3c 415e 813c
000003a0: 8f94 06bd a39a 4a3c 2b43 06bd ccb8 30bd
000003b0: fabe ebbc 10b5 62bd c3c0 19bd b985 4c3d
000003c0: 3890 413d 2d37 40bc b548 653d deaa 69bd
000003d0: 7c03 7ebd 515f 3fbb d472 bb3c 54bd 0b3d
000003e0: ebfa 773c 2b4f 1e3d 4b43 ddbc 9792 923c
000003f0: 57dc 4d3d 4521 cc3c 928d a03c da38 14bd
